…
00:09<00:01, 18931131.88it/s] 86% 147194880/170498071 [00:09<00:01, 18783078.70it/s] 88% 150701056/170498071 [00:10<00:01, 18808967.63it/s] 90% 154256384/170498071 [00:10<00:00, 18877950.72it/s] 93% 157926400/170498071 [00:10<00:00, 19071706.26it/s] 95% 161350656/170498071 [00:10<00:00, 18896710.35it/s] 97% 164873216/170498071 [00:10<00:00, 18893007.76it/s] 99% 168330240/170498071 [00:10<00:00, 18786238.40it/s]170499072it [00:11, 15398434.31it/s]                   
Extracting ./data/cifar/cifar-10-python.tar.gz to ./data/cifar/
Files already downloaded and verified
Sequential(
  (0): Conv2d(3, 64, kernel_size=(3, 3), stride=(1, 1), padding=(1, 1))
  (1): ReLU(inplace=True)
  (2): MaxPool2d(kernel_size=2, stride=2, padding=0, dilation=1, ceil_mode=False)
  (3): Conv2d(64, 128, kernel_size=(3, 3), stride=(1, 1), padding=(1, 1))
  (4): ReLU(inplace=True)
  (5): MaxPool2d(kernel_size=2, stride=2, padding=0, dilation=1, ceil_mode=False)
  (6): Conv2d(128, 256, kernel_size=(3, 3), stride=(1, 1), padding=(1, 1))
  (7): ReLU(inplace=True)
  (8): Conv2d(256, 256, kernel_size=(3, 3), stride=(1, 1), padding=(1, 1))
  (9): ReLU(inplace=True)
  (10): MaxPool2d(kernel_size=2, stride=2, padding=0, dilation=1, ceil_mode=False)
  (11): Conv2d(256, 512, kernel_size=(3, 3), stride=(1, 1), padding=(1, 1))
  (12): ReLU(inplace=True)
  (13): Conv2d(512, 512, kernel_size=(3, 3), stride=(1, 1), padding=(1, 1))
  (14): ReLU(inplace=True)
  (15): MaxPool2d(kernel_size=2, stride=2, padding=0, dilation=1, ceil_mode=False)
  (16): Conv2d(512, 512, kernel_size=(3, 3), stride=(1, 1), padding=(1, 1))
  (17): ReLU(inplace=True)
  (18): Conv2d(512, 512, kernel_size=(3, 3), stride=(1, 1), padding=(1, 1))
  (19): ReLU(inplace=True)
  (20): MaxPool2d(kernel_size=2, stride=2, padding=0, dilation=1, ceil_mode=False)
  (21): Flatten(start_dim=1, end_dim=-1)
  (22): Dropout(p=0.5, inplace=False)
  (23): Linear(in_features=512, out_features=512, bias=True)
  (24): ReLU(inplace=True)
  (25): Dropout(p=0.5, inplace=False)
  (26): Linear(in_features=512, out_features=512, bias=True)
  (27): ReLU(inplace=True)
  (28): Linear(in_features=512, out_features=100, bias=True)
)
Init State dim 150
Init Action dim 100
  0% 0/1000 [00:00<?, ?it/s]ROUND:  0
[5, 5, 5, 5, 5, 5, 5, 5, 5, 5, 5, 5, 5, 5, 5, 5, 5, 5, 5, 5, 5, 5, 5, 5, 5, 5, 5, 5, 5, 5, 5, 5, 5, 5, 5, 5, 5, 5, 5, 5, 5, 5, 5, 5, 5, 5, 5, 5, 5, 5]
ROUND:  0  TEST ACC:  0.0984
  0% 1/1000 [01:42<28:26:33, 102.50s/it]ROUND:  1
[5, 5, 5, 5, 5, 5, 5, 5, 5, 5, 5, 5, 5, 5, 5, 5, 5, 5, 5, 5, 5, 5, 5, 5, 5, 5, 5, 5, 5, 5, 5, 5, 5, 5, 5, 5, 5, 5, 5, 5, 5, 5, 5, 5, 5, 5, 5, 5, 5, 5]
…
