…
00:09<00:01, 16415212.65it/s] 89% 150930432/170498071 [00:09<00:01, 16362411.43it/s] 90% 153895936/170498071 [00:09<00:01, 16195545.23it/s] 92% 156959744/170498071 [00:09<00:00, 16181382.62it/s] 94% 159908864/170498071 [00:10<00:00, 16015948.03it/s] 96% 162923520/170498071 [00:10<00:00, 16040170.80it/s] 97% 165938176/170498071 [00:10<00:00, 15956651.60it/s] 99% 168952832/170498071 [00:10<00:00, 15920599.01it/s]170499072it [00:10, 15905579.17it/s]                   
Extracting ./data/cifar/cifar-10-python.tar.gz to ./data/cifar/
Files already downloaded and verified
Sequential(
  (0): Conv2d(3, 64, kernel_size=(3, 3), stride=(1, 1), padding=(1, 1))
  (1): ReLU(inplace=True)
  (2): MaxPool2d(kernel_size=2, stride=2, padding=0, dilation=1, ceil_mode=False)
  (3): Conv2d(64, 128, kernel_size=(3, 3), stride=(1, 1), padding=(1, 1))
  (4): ReLU(inplace=True)
  (5): MaxPool2d(kernel_size=2, stride=2, padding=0, dilation=1, ceil_mode=False)
  (6): Conv2d(128, 256, kernel_size=(3, 3), stride=(1, 1), padding=(1, 1))
  (7): ReLU(inplace=True)
  (8): Conv2d(256, 256, kernel_size=(3, 3), stride=(1, 1), padding=(1, 1))
  (9): ReLU(inplace=True)
  (10): MaxPool2d(kernel_size=2, stride=2, padding=0, dilation=1, ceil_mode=False)
  (11): Conv2d(256, 512, kernel_size=(3, 3), stride=(1, 1), padding=(1, 1))
  (12): ReLU(inplace=True)
  (13): Conv2d(512, 512, kernel_size=(3, 3), stride=(1, 1), padding=(1, 1))
  (14): ReLU(inplace=True)
  (15): MaxPool2d(kernel_size=2, stride=2, padding=0, dilation=1, ceil_mode=False)
  (16): Conv2d(512, 512, kernel_size=(3, 3), stride=(1, 1), padding=(1, 1))
  (17): ReLU(inplace=True)
  (18): Conv2d(512, 512, kernel_size=(3, 3), stride=(1, 1), padding=(1, 1))
  (19): ReLU(inplace=True)
  (20): MaxPool2d(kernel_size=2, stride=2, padding=0, dilation=1, ceil_mode=False)
  (21): Flatten(start_dim=1, end_dim=-1)
  (22): Dropout(p=0.5, inplace=False)
  (23): Linear(in_features=512, out_features=512, bias=True)
  (24): ReLU(inplace=True)
  (25): Dropout(p=0.5, inplace=False)
  (26): Linear(in_features=512, out_features=512, bias=True)
  (27): ReLU(inplace=True)
  (28): Linear(in_features=512, out_features=100, bias=True)
)
Init State dim 150
Init Action dim 100
  0% 0/1000 [00:00<?, ?it/s]ROUND:  0
[5, 5, 5, 5, 5, 5, 5, 5, 5, 5, 5, 5, 5, 5, 5, 5, 5, 5, 5, 5, 5, 5, 5, 5, 5, 5, 5, 5, 5, 5, 5, 5, 5, 5, 5, 5, 5, 5, 5, 5, 5, 5, 5, 5, 5, 5, 5, 5, 5, 5]
ROUND:  0  TEST ACC:  0.1018
  0% 1/1000 [00:40<11:06:42, 40.04s/it]ROUND:  1
[5, 5, 5, 5, 5, 5, 5, 5, 5, 5, 5, 5, 5, 5, 5, 5, 5, 5, 5, 5, 5, 5, 5, 5, 5, 5, 5, 5, 5, 5, 5, 5, 5, 5, 5, 5, 5, 5, 5, 5, 5, 5, 5, 5, 5, 5, 5, 5, 5, 5]
…
