…
00:23<00:01, 19173040.90it/s] 85% 145441792/170498071 [00:23<00:01, 19272830.27it/s] 88% 149193728/170498071 [00:24<00:01, 19442511.33it/s] 90% 152929280/170498071 [00:24<00:00, 19547009.67it/s] 92% 156632064/170498071 [00:24<00:00, 19580126.39it/s] 94% 160302080/170498071 [00:24<00:00, 19558897.77it/s] 96% 164037632/170498071 [00:24<00:00, 19633489.27it/s] 98% 167330816/170498071 [00:25<00:00, 19092024.83it/s]170499072it [00:25, 6791601.56it/s]                    
Extracting ./data/cifar/cifar-10-python.tar.gz to ./data/cifar/
Files already downloaded and verified
Sequential(
  (0): Conv2d(3, 64, kernel_size=(3, 3), stride=(1, 1), padding=(1, 1))
  (1): ReLU(inplace=True)
  (2): MaxPool2d(kernel_size=2, stride=2, padding=0, dilation=1, ceil_mode=False)
  (3): Conv2d(64, 128, kernel_size=(3, 3), stride=(1, 1), padding=(1, 1))
  (4): ReLU(inplace=True)
  (5): MaxPool2d(kernel_size=2, stride=2, padding=0, dilation=1, ceil_mode=False)
  (6): Conv2d(128, 256, kernel_size=(3, 3), stride=(1, 1), padding=(1, 1))
  (7): ReLU(inplace=True)
  (8): Conv2d(256, 256, kernel_size=(3, 3), stride=(1, 1), padding=(1, 1))
  (9): ReLU(inplace=True)
  (10): MaxPool2d(kernel_size=2, stride=2, padding=0, dilation=1, ceil_mode=False)
  (11): Conv2d(256, 512, kernel_size=(3, 3), stride=(1, 1), padding=(1, 1))
  (12): ReLU(inplace=True)
  (13): Conv2d(512, 512, kernel_size=(3, 3), stride=(1, 1), padding=(1, 1))
  (14): ReLU(inplace=True)
  (15): MaxPool2d(kernel_size=2, stride=2, padding=0, dilation=1, ceil_mode=False)
  (16): Conv2d(512, 512, kernel_size=(3, 3), stride=(1, 1), padding=(1, 1))
  (17): ReLU(inplace=True)
  (18): Conv2d(512, 512, kernel_size=(3, 3), stride=(1, 1), padding=(1, 1))
  (19): ReLU(inplace=True)
  (20): MaxPool2d(kernel_size=2, stride=2, padding=0, dilation=1, ceil_mode=False)
  (21): Flatten(start_dim=1, end_dim=-1)
  (22): Dropout(p=0.5, inplace=False)
  (23): Linear(in_features=512, out_features=512, bias=True)
  (24): ReLU(inplace=True)
  (25): Dropout(p=0.5, inplace=False)
  (26): Linear(in_features=512, out_features=512, bias=True)
  (27): ReLU(inplace=True)
  (28): Linear(in_features=512, out_features=100, bias=True)
)
Init State dim 30
Init Action dim 20
  0% 0/1000 [00:00<?, ?it/s]ROUND:  0
[5, 5, 5, 5, 5, 5, 5, 5, 5, 5]
ROUND:  0  TEST ACC:  0.1061
  0% 1/1000 [02:57<49:13:03, 177.36s/it]ROUND:  1
[5, 5, 5, 5, 5, 5, 5, 5, 5, 5]
ROUND:  1  TEST ACC:  0.1234
  0% 2/1000 [05:44<47:29:11, 171.29s/it]ROUND:  2
[5, 5, 5, 5, 5, 5, 5, 5, 5, 5]
ROUND:  2  TEST ACC:  0.2011
…
