…
00:27<00:00, 14273525.87it/s] 93% 159056896/170498071 [00:27<00:00, 15050895.41it/s] 94% 160590848/170498071 [00:27<00:00, 14991913.99it/s] 95% 162317312/170498071 [00:27<00:00, 15630378.88it/s] 96% 163898368/170498071 [00:27<00:00, 15380480.31it/s] 97% 165643264/170498071 [00:27<00:00, 15968041.87it/s] 98% 167251968/170498071 [00:27<00:00, 15742000.02it/s] 99% 168920064/170498071 [00:27<00:00, 16014006.47it/s]170499072it [00:28, 6085642.45it/s]                    
Extracting ./data/cifar/cifar-10-python.tar.gz to ./data/cifar/
Files already downloaded and verified
Sequential(
  (0): Conv2d(3, 64, kernel_size=(3, 3), stride=(1, 1), padding=(1, 1))
  (1): ReLU(inplace=True)
  (2): MaxPool2d(kernel_size=2, stride=2, padding=0, dilation=1, ceil_mode=False)
  (3): Conv2d(64, 128, kernel_size=(3, 3), stride=(1, 1), padding=(1, 1))
  (4): ReLU(inplace=True)
  (5): MaxPool2d(kernel_size=2, stride=2, padding=0, dilation=1, ceil_mode=False)
  (6): Conv2d(128, 256, kernel_size=(3, 3), stride=(1, 1), padding=(1, 1))
  (7): ReLU(inplace=True)
  (8): Conv2d(256, 256, kernel_size=(3, 3), stride=(1, 1), padding=(1, 1))
  (9): ReLU(inplace=True)
  (10): MaxPool2d(kernel_size=2, stride=2, padding=0, dilation=1, ceil_mode=False)
  (11): Conv2d(256, 512, kernel_size=(3, 3), stride=(1, 1), padding=(1, 1))
  (12): ReLU(inplace=True)
  (13): Conv2d(512, 512, kernel_size=(3, 3), stride=(1, 1), padding=(1, 1))
  (14): ReLU(inplace=True)
  (15): MaxPool2d(kernel_size=2, stride=2, padding=0, dilation=1, ceil_mode=False)
  (16): Conv2d(512, 512, kernel_size=(3, 3), stride=(1, 1), padding=(1, 1))
  (17): ReLU(inplace=True)
  (18): Conv2d(512, 512, kernel_size=(3, 3), stride=(1, 1), padding=(1, 1))
  (19): ReLU(inplace=True)
  (20): MaxPool2d(kernel_size=2, stride=2, padding=0, dilation=1, ceil_mode=False)
  (21): Flatten(start_dim=1, end_dim=-1)
  (22): Dropout(p=0.5, inplace=False)
  (23): Linear(in_features=512, out_features=512, bias=True)
  (24): ReLU(inplace=True)
  (25): Dropout(p=0.5, inplace=False)
  (26): Linear(in_features=512, out_features=512, bias=True)
  (27): ReLU(inplace=True)
  (28): Linear(in_features=512, out_features=100, bias=True)
)
Init State dim 60
Init Action dim 40
  0% 0/1000 [00:00<?, ?it/s]ROUND:  0
[5, 5, 5, 5, 5, 5, 5, 5, 5, 5, 5, 5, 5, 5, 5, 5, 5, 5, 5, 5]
ROUND:  0  TEST ACC:  0.0999
  0% 1/1000 [00:39<11:01:54, 39.75s/it]ROUND:  1
[5, 5, 5, 5, 5, 5, 5, 5, 5, 5, 5, 5, 5, 5, 5, 5, 5, 5, 5, 5]
ROUND:  1  TEST ACC:  0.1
  0% 2/1000 [01:10<9:29:12, 34.22s/it] ROUND:  2
…
