…
00:08<00:01, 19498885.29it/s] 87% 148734976/170498071 [00:09<00:01, 19543198.97it/s] 89% 152273920/170498071 [00:09<00:00, 19378818.86it/s] 91% 155681792/170498071 [00:09<00:00, 19076223.28it/s] 93% 159220736/170498071 [00:09<00:00, 19033583.86it/s] 96% 162890752/170498071 [00:09<00:00, 19193438.39it/s] 98% 166495232/170498071 [00:10<00:00, 19218809.72it/s]100% 170181632/170498071 [00:10<00:00, 19345576.76it/s]170499072it [00:10, 16680832.55it/s]                   
Extracting ./data/cifar/cifar-10-python.tar.gz to ./data/cifar/
Files already downloaded and verified
Sequential(
  (0): Conv2d(3, 64, kernel_size=(3, 3), stride=(1, 1), padding=(1, 1))
  (1): ReLU(inplace=True)
  (2): MaxPool2d(kernel_size=2, stride=2, padding=0, dilation=1, ceil_mode=False)
  (3): Conv2d(64, 128, kernel_size=(3, 3), stride=(1, 1), padding=(1, 1))
  (4): ReLU(inplace=True)
  (5): MaxPool2d(kernel_size=2, stride=2, padding=0, dilation=1, ceil_mode=False)
  (6): Conv2d(128, 256, kernel_size=(3, 3), stride=(1, 1), padding=(1, 1))
  (7): ReLU(inplace=True)
  (8): Conv2d(256, 256, kernel_size=(3, 3), stride=(1, 1), padding=(1, 1))
  (9): ReLU(inplace=True)
  (10): MaxPool2d(kernel_size=2, stride=2, padding=0, dilation=1, ceil_mode=False)
  (11): Conv2d(256, 512, kernel_size=(3, 3), stride=(1, 1), padding=(1, 1))
  (12): ReLU(inplace=True)
  (13): Conv2d(512, 512, kernel_size=(3, 3), stride=(1, 1), padding=(1, 1))
  (14): ReLU(inplace=True)
  (15): MaxPool2d(kernel_size=2, stride=2, padding=0, dilation=1, ceil_mode=False)
  (16): Conv2d(512, 512, kernel_size=(3, 3), stride=(1, 1), padding=(1, 1))
  (17): ReLU(inplace=True)
  (18): Conv2d(512, 512, kernel_size=(3, 3), stride=(1, 1), padding=(1, 1))
  (19): ReLU(inplace=True)
  (20): MaxPool2d(kernel_size=2, stride=2, padding=0, dilation=1, ceil_mode=False)
  (21): Flatten(start_dim=1, end_dim=-1)
  (22): Dropout(p=0.5, inplace=False)
  (23): Linear(in_features=512, out_features=512, bias=True)
  (24): ReLU(inplace=True)
  (25): Dropout(p=0.5, inplace=False)
  (26): Linear(in_features=512, out_features=512, bias=True)
  (27): ReLU(inplace=True)
  (28): Linear(in_features=512, out_features=100, bias=True)
)
Init State dim 60
Init Action dim 40
  0% 0/1000 [00:00<?, ?it/s]ROUND:  0
[5, 5, 5, 5, 5, 5, 5, 5, 5, 5, 5, 5, 5, 5, 5, 5, 5, 5, 5, 5]
ROUND:  0  TEST ACC:  0.0997
  0% 1/1000 [00:33<9:11:00, 33.09s/it]ROUND:  1
[5, 5, 5, 5, 5, 5, 5, 5, 5, 5, 5, 5, 5, 5, 5, 5, 5, 5, 5, 5]
ROUND:  1  TEST ACC:  0.0997
  0% 2/1000 [00:58<7:51:55, 28.37s/it]ROUND:  2
…
